model_weights/model_numbers_10_epochs.pth (torch, 42202 bytes, 6 tensors)

conv1.bias f4 [64]
0.14942248 0.20293242 -0.6007732 -0.34685943 -0.6285532 -0.37302566 -0.44611922 -0.4343874
0.24903731 -0.4739974 -0.69446516 0.097830474 -0.774009 -0.11723494 -0.7469847 -0.43350604
0.21413016 0.13886811 -0.78087664 -0.6632863 0.08604727 -0.2971324 -0.09553918 -0.026979722
-0.68609667 -0.49958232 0.072422594 -0.7384043 -0.7497451 -0.21559821 -0.32220948 0.12320216
0.25755826 0.2456519 -0.7980905 -0.3976631 -0.39039496 -0.7742504 -0.61632514 -0.34067222
-0.30887586 -0.4476491 -0.41460666 0.11941762 -0.066052265 -0.35573357 -0.16955602 -0.7457286
-0.040649902 -0.04367187 -0.5830659 -0.24778824 -0.15545473 -0.7187867 -0.0613838 -0.80138
-0.45007473 -0.41222572 -0.57305455 0.13981579 0.092361875 -0.41293222 0.1280152 -0.4508028
00000000: 3502 193e 84cd 4f3e 46cc 19bf 8f97 b1be
00000010: dde8 20bf 38fd bebe bd69 e4be 0668 debe
00000020: a303 7f3e caaf f2be 78c8 31bf 585b c83d
00000030: 7425 46bf df18 f0bd 643a 3fbf 81f4 ddbe
00000040: f044 5b3e 7133 0e3e 88e7 47bf 22cd 29bf
00000050: 8d39 b03d bd21 98be 0caa c3bd 9404 ddbc
00000060: 08a4 2fbf 41c9 ffbe 4c52 943d 1008 3dbf
00000070: 4bef 3fbf c7c5 5cbe a4f8 a4be 6a51 fc3d
00000080: adde 833e 2c8c 7b3e a94f 4cbf 7f9a cbbe
00000090: d9e1 c7be 4635 46bf 7cc7 1dbf 976c aebe
000000a0: fa24 9ebe 4332 e5be 5347 d4be 3a91 f43d
000000b0: 6946 87bd b622 b6be 18a0 2dbe 12e8 3ebf
000000c0: 8380 26bd 46e1 32bd cf43 15bf 33bc 7dbe
000000d0: 862f 1fbe 6802 38bf 946d 7bbd 3d27 4dbf
000000e0: 3270 e6be 400f d3be b4b3 12bf df2b 0f3e
000000f0: 3928 bd3d da6b d3be 6b16 033e a0cf e6be

conv1.lin.weight f4 [64, 2]
0.5082394 0.066339195 0.2801278 -0.07711258 0.46613172 -0.54083747 -0.18582389 0.18903838
0.5042257 -0.5799956 -0.079848595 0.23586246 -0.13805163 0.26615268 -0.079512045 0.2630119
0.32375884 -0.14626543 -0.869673 -0.5189406 0.5309787 -0.54414725 -0.5487704 -0.1367565
0.6044396 -0.61142373 0.34332168 0.20383598 0.58192164 -0.5771703 0.07249705 0.30713534
0.34656975 -0.036012925 0.5167148 0.057079785 0.5842597 -0.6466062 0.5182006 -0.58892864
-0.5195002 -0.1348578 -0.05805612 0.18060489 0.2588297 0.1761603 -0.50771934 -0.8286641
0.5275159 -0.5029177 -0.08591784 0.2879761 -0.53014076 -0.15381616 0.5969447 -0.62390363
0.60574293 -0.65905213 0.27183563 0.23246904 -0.6525847 -0.41561034 0.41824105 0.036028337
0.33349392 -0.10447646 0.31441364 -0.09179444 0.61388505 -0.63625365 -0.08377591 0.21531577
-0.06914652 0.23627019 0.6022339 -0.609071 0.490792 -0.5836562 -0.25860664 0.19597831
-0.6592352 -0.41935894 -0.82654065 -0.48745403 0.0711681 0.28400895 0.43426287 0.05930533
-0.468622 -0.7417191 -0.0818887 0.2107086 -0.5709223 -0.8750476 0.57753265 -0.6418409
-0.4577362 -0.7743461 -0.4672645 -0.78087884 -1.0107275 -0.55835074 0.4998933 0.26275253
-0.18261538 0.13582529 0.5441044 -0.55039364 -0.4551118 -0.71172285 0.6366495 -0.62284917
-0.20025246 0.25889724 -0.80214536 -0.47951636 -1.0287057 -0.56524396 0.4184805 0.0366082
-0.53478914 -0.13551936 -0.06216386 0.23599443 0.46323293 0.03693084 0.07594826 0.31976083
00000000: fa1b 023f d8dc 873d e96c 8f3e 33ed 9dbd
00000010: d1a8 ee3e 5374 0abf 9e48 3ebe 4793 413e
00000020: ef14 013f 977a 14bf a987 a3bd ee85 713e
00000030: 685d 0dbe 2a45 883e 36d7 a2bd 7fa9 863e
00000040: b8c3 a53e 9bc6 15be e4a2 5ebf 4bd9 04bf
00000050: 38ee 073f 3c4d 0bbf 387c 0cbf e509 0cbe
00000060: 8ebc 1a3f 4486 1cbf dcc7 af3e 61ba 503e
00000070: d1f8 143f 6fc1 13bf 5579 943d d840 9d3e
00000080: 9771 b13e 4a82 13bd 6c47 043f 7ecc 693d
00000090: 0b92 153f fc87 25bf cba8 043f 07c4 16bf
000000a0: f7fd 04bf 2a18 0abe 41cc 6dbd 7df0 383e
000000b0: 5485 843e 5e63 343e e5f9 01bf 5523 54bf
000000c0: 480b 073f 37bf 00bf b1f5 afbd 9a71 933e
000000d0: 4eb7 07bf fc81 1dbe 5ed1 183f 26b8 1fbf
000000e0: f811 1b3f a4b7 28bf 0a2e 8b3e 5d0c 6e3e
000000f0: ca0f 27bf e1ca d4be b123 d63e 7392 133d
00000100: b7bf aa3e c1f7 d5bd d3fa a03e b9fe bbbd
00000110: 9227 1d3f 85e1 22bf b492 abbd bd7b 5c3e
00000120: b19c 8dbd d0f0 713e 002c 1a3f 14ec 1bbf
00000130: 1749 fb3e 7e6a 15bf 1768 84be 8aae 483e
00000140: a3c3 28bf 37b6 d6be 2b98 53bf 9393 f9be
00000150: 95c0 913d 9f69 913e b457 de3e 25ea 723d
00000160: 39ef efbe 4ee1 3dbf 43b5 a7bd ffc3 573e
00000170: f727 12bf 1f03 60bf 2ed9 133f af4f 24bf
00000180: 665c eabe 8c3b 46bf 4b3d efbe ade7 47bf
00000190: 855f 81bf 13f0 0ebf 04f2 ff3e 8087 863e
000001a0: 87ff 3abe c915 0b3e 6d4a 0b3f 99e6 0cbf
000001b0: 6a04 e9be 7833 36bf 76fb 223f 0b73 1fbf
000001c0: fb0e 4dbe 2e8e 843e 6659 4dbf 2b83 f5be
000001d0: a1ac 83bf d4b3 10bf 1343 d63e 7bf2 153d
000001e0: f1e7 08bf 96c5 0abe 889f 7ebd 86a8 713e
000001f0: de2c ed3e cb44 173d c38a 9b3d b1b7 a33e

conv2.bias f4 [128]
0.013388393 0.09915268 0.106750466 0.25471857 0.19523269 -0.30969983 0.15777521 -0.16679318
-0.14647561 -0.264859 -0.3561012 0.50192446 -0.18771143 0.17768149 -0.16749786 -0.3572677
0.045912806 -0.23233019 0.14420103 0.2148356 0.25894603 0.033806376 -0.2575824 -0.11799791
0.40678927 -0.07430983 -0.12895371 -0.32096153 -0.21221936 0.06670065 -0.10711755 0.27900675
0.39926097 -0.40651533 0.29985246 -0.010346657 0.1102228 0.033991102 -0.06364218 -0.15120153
0.3300296 0.04610178 -0.13720766 -0.030376708 -0.31754315 -0.18604463 -0.16009693 0.20750546
0.016379837 -0.28169173 -0.34204274 0.23220788 0.090033635 0.39127532 0.041740924 0.17455178
-0.2950498 0.37822148 0.32101548 0.21685739 0.23023231 -0.027524682 -0.11879567 -0.34572396
-0.31306535 -0.039459787 -0.1707325 -0.399287 0.076215334 0.16147722 -0.0064764568 0.2113478
-0.0686732 -0.04014344 -0.18603799 0.1134573 0.29089633 -0.3800478 0.052341893 0.21440902
-0.38875532 -0.0009533385 -0.12741669 -0.22829653 -0.07809687 -0.07628372 -0.1258261 -0.004416552
0.29503766 -0.206499 0.14579917 -0.042122006 -0.037584808 -0.054844223 -0.12016305 0.4125622
0.12020104 0.03855109 0.11705004 -0.2157855 -0.39112633 0.07144747 -0.100690275 0.020704102
-0.16211951 -0.012856981 0.0049748407 0.23594463 -0.07963826 -0.050435897 0.3540967 0.030720064
-0.15830798 0.25219345 -0.054391228 0.17149428 0.028413704 -0.0027947186 -0.29245594 -0.3535822
0.029572757 -0.2278777 0.051644348 0.060433496 -0.15733472 0.15422083 -0.0026321423 0.26233083
00000000: fe5a 5b3c 8f10 cb3d fd9f da3d 796a 823e
00000010: 14eb 473e fa90 9ebe d38f 213e d5cb 2abe
00000020: b4fd 15be 999b 87be e652 b6be 1f7e 003f
00000030: 6d37 40be 23f2 353e 8f84 2bbe cbeb b6be
00000040: 110f 3c3d f7e7 6dbe 6fa9 133e ddfd 5b3e
00000050: 9394 843e 8e78 0a3d d7e1 83be e3a8 f1bd
00000060: af46 d03e c12f 98bd 710c 04be 1255 a4be
00000070: 0850 59be 5a9a 883d 7260 dbbd f9d9 8e3e
00000080: ef6b cc3e c722 d0be 4386 993e 0685 29bc
00000090: 7ebc e13d 413a 0b3d d556 82bd 93d4 1abe
000000a0: a4f9 a83e 38d5 3c3d 2a80 0cbe 93d8 f8bc
000000b0: 0495 a2be 7c82 3ebe 73f0 23be 507c 543e
000000c0: 022f 863c e639 90be 3a20 afbe e7c7 6d3e
000000d0: 8e63 b83d 3d55 c83e 88f8 2a3d b4bd 323e
000000e0: c410 97be 3fa6 c13e 245c a43e dd0f 5e3e
000000f0: 05c2 6b3e 717b e1bc 254b f3bd bb02 b1be
00000100: 1a4a a0be 96a0 21bd 80d4 2ebe 586f ccbe
00000110: c916 9c3d 495a 253e 7538 d4bb 8f6b 583e
00000120: 89a4 8cbd 736d 24bd be80 3ebe 4d5c e83d
00000130: 5df0 943e a095 c2be 7464 563d 0a8e 5b3e
00000140: f00a c7be 77e9 79ba 8579 02be 91c6 69be
00000150: 40f1 9fbd a43a 9cbd 8fd8 00be b9b8 90bb
00000160: 2d0f 973e 7974 53be 614c 153e 2088 2cbd
00000170: 87f2 19bd 56a4 60bd 0c18 f6bd 5a3b d33e
00000180: f62b f63d bfe7 1d3d eeb7 ef3d e0f6 5cbe
00000190: b641 c8be 0d53 923d b436 cebd a69b a93c
000001a0: a802 26be 16a6 52bc fd03 a33b 789b 713e
000001b0: 6219 a3bd df95 4ebd 2a4c b53e a5a8 fb3c
000001c0: 7d1b 22be 801f 813e 56c9 5ebd 329c 2f3e
000001d0: dbc3 e83c 9927 37bb c9bc 95be ba08 b5be
000001e0: 9142 f23c c658 69be 0689 533d 1d89 773d
000001f0: 5a1c 21be 11ec 1d3e 0580 2cbb 3a50 863e

conv2.lin.weight f4 [128, 64]
-0.2584285 -0.08270047 0.15363997 -0.0955555 0.33787 -0.07331164 -0.14690593 -0.15010796
0.1262768 -0.6346425 0.52125704 0.22960854 0.5172554 -0.018605499 0.34563422 -0.26094496
-0.01860705 -0.031338155 0.22597623 0.36587033 0.23773168 -0.26008448 -0.026097123 -0.25134012
0.61310923 -0.05052603 0.13325354 0.4238085 0.1970401 0.010526016 -0.35519615 -0.24034189
0.028892467 -0.11409901 0.52396476 -0.3250139 -0.20068884 0.5334277 0.1948046 -0.23051058
-0.26183647 -0.6482993 0.036482755 0.0287006 -0.27635658 -0.005395895 -0.34949583 0.47562593
-0.25085118 -0.06772512 -0.5826904 -0.114320286 -0.08979271 0.55243 -0.27014625 0.38997242
-0.3271671 -0.4710433 -0.9312572 -0.13668871 0.11327724 -0.29118404 -0.037628926 -0.25610313
-0.3073427 0.025014624 0.7399241 -0.25161117 0.741987 -0.24720435 -0.062011085 -0.2096472
0.06729552 -0.37578842 0.71126574 0.25665617 0.7560006 -0.059576638 0.55107445 -0.36395845
-0.19103642 -0.16568151 0.7476396 0.6580049 -0.02315834 -0.3594815 -0.2652444 0.18929772
0.8706595 -0.25868 0.009379382 0.7626422 0.41037613 -0.2193404 -0.36318326 -0.15610886
-0.1376358 0.08797547 0.69874 -0.32836378 -0.21357301 0.66789335 0.6634707 -0.040511094
-0.10613731 -0.54205 -0.28612587 -0.053125754 0.13532807 -0.2895376 -0.15205006 0.7353776
0.107570864 0.19887663 -0.52936345 -0.036219176 0.0114255315 0.5555506 0.011416712 0.6455484
-0.087799154 -0.5861882 -0.6776679 -0.13380149 0.08474668 -0.11698553 -0.26472056 -0.09624939
0.22993878 0.32682756 0.08421777 0.03475278 0.25767186 0.07440049 -0.059085287 0.042098474
0.27191365 0.017833618 0.461303 -0.11989337 0.27418575 0.12035314 0.2970246 0.2135818
0.2486644 0.21783428 0.4362381 0.13784735 0.19293448 0.110962704 0.053613394 -0.34156165
0.34417522 0.03467084 0.024720315 0.44126442 0.3153195 -0.077309355 -0.2350032 0.3268676
0.16212147 0.37118664 0.38719985 0.2056659 0.11298263 0.46106386 0.35969827 0.032285254
-0.24462773 0.11057598 0.068271495 0.038478486 -0.51905704 0.037884172 -0.39637488 0.21124724
-0.4709822 -0.43989116 -0.13982664 0.14119162 0.1371439 0.4080036 -0.6188189 0.403256
0.10327272 -0.03628159 0.036631048 0.1835799 -0.10591613 0.13498804 0.1667465 -0.04755409
0.017890833 -0.029984096 -0.012331205 -0.279039 0.25822192 -0.22380523 -0.38695556 -0.3095815
0.25065503 -0.80502987 0.24547984 0.007800166 0.14716266 -0.1609095 0.02187536 -0.22374077
0.16092682 -0.03536225 0.13214587 0.056224875 0.043609746 -0.28821993 0.039346226 -0.034632947
0.14908145 -0.23730026 -0.1432226 0.06529027 0.09111285 -0.1966651 -0.81632036 0.1740386
-0.0073227417 0.06067586 0.23031965 -0.23786476 -0.27407628 -0.022785317 0.22233039 -0.074810356
-0.79128337 -0.74723375 -0.27735943 -0.0038579146 -0.12154512 -0.1917385 -0.11460297 -0.05225489
0.20246126 0.1835258 -0.9656291 -0.2575544 -0.21739219 0.0952489 0.22625323 0.019662464
-0.26884463 -0.9141328 -0.86202776 -0.09757908 0.17076124 -0.17371014 -0.12380714 -0.38190928
00000000: be50 84be dd5e a9bd cc53 1d3e 9ab2 c3bd
00000010: 4cfd ac3e 6a24 96bd 826e 16be e7b5 19be
00000020: b54e 013e ee77 22bf 1a71 053f 801e 6b3e
00000030: da6a 043f 8f6a 98bc f8f6 b03e 949a 85be
00000040: d06d 98bc 705c 00bd 5066 673e 5b53 bb3e
00000050: ef6f 733e cb29 85be a2c9 d5bc a7af 80be
00000060: baf4 1c3f 62f4 4ebd 9e73 083e 6dfd d83e
00000070: e1c4 493e 5075 2c3c 45dc b5be 2f1c 76be
00000080: e5af ec3c beac e9bd 8e22 063f 3968 a6be
00000090: 6081 4dbe b88e 083f db7a 473e f70a 6cbe
000000a0: 6e0f 86be f1f6 25bf f16e 153d 851d eb3c
000000b0: 9c7e 8dbe 0cd0 b0bb 1ef1 b2be 3e85 f33e
000000c0: 916f 80be 78b3 8abd 332b 15bf c120 eabd
000000d0: 3ee5 b7bd 0d6c 0d3f 9c50 8abe 77aa c73e
000000e0: 7282 a7be 962c f1be df66 6ebf 20f8 0bbe
000000f0: e6fd e73d 1316 95be ca20 1abd f31f 83be
00000100: 065c 9dbe 78eb cc3c aa6b 3d3f 2ed3 80be
00000110: dcf2 3d3f 2323 7dbe 56ff 7dbd c1ad 56be
00000120: 3cd2 893d 5767 c0be 8315 363f 7068 833e
00000130: 4189 413f a206 74bd 3713 0d3f c358 babe
00000140: 0d9f 43be 6aa8 29be 4f65 3f3f 0273 283f
00000150: 8fb6 bdbc f60d b8be 1dce 87be 43d7 413e
00000160: 8ae3 5e3f b471 84be fbab 193c 853c 433f
00000170: d21c d23e c59a 60be 28f3 b9be 00db 1fbe
00000180: 66f0 0cbe 7c2c b43d a0e0 323f 4c1f a8be
00000190: e2b2 5abe 0ffb 2a3f 37d9 293f f6ee 25bd
000001a0: 855e d9bd cac3 0abf 177f 92be 649a 59bd
000001b0: 7193 0a3e 463e 94be 03b3 1bbe b541 3c3f
000001c0: 1d4e dc3d 51a6 4b3e 5d84 07bf 8f5a 14bd
000001d0: 2732 3b3c 9038 0e3f 290d 3b3c a942 253f
000001e0: 0bd0 b3bd 6e10 16bf a57b 2dbf 4203 09be
000001f0: ab8f ad3d 1c96 efbd 7489 87be 661e c5bd
00000200: 1275 6b3e f155 a73e 5e7a ac3d ee58 0e3d
00000210: 91ed 833e 495f 983d 6a03 72bd 736f 2c3d
00000220: 4438 8b3e cf17 923c e82f ec3e a88a f5bd
00000230: 1362 8c3e b57b f63d 9c13 983e 30b5 5a3e
00000240: e1a1 7e3e f30f 5f3e 9a5a df3e db27 0d3e
00000250: 9e90 453e 6a40 e33d b899 5b3d 2be1 aebe
00000260: bc37 b03e 0303 0e3d 4282 ca3c 69ed e13e
00000270: 8f71 a13e 5e54 9ebd aea4 70be 315b a73e
00000280: 2c03 263e 2d0c be3e 0f3f c63e 159a 523e
00000290: 7063 e73d 9010 ec3e 5f2a b83e 8b3d 043d
000002a0: b17f 7abe a975 e23d edd1 8b3d 9e9b 1d3d
000002b0: ece0 04bf 6f2c 1b3d a6f1 cabe 3251 583e
000002c0: 9424 f1be 6a39 e1be b72e 0fbe 8994 103e
000002d0: 736f 0c3e d9e5 d03e ea6a 1ebf 9277 ce3e
000002e0: a680 d33d 019c 14bd 700a 163d 5ffc 3b3e
000002f0: 8eea d8bd 4e3a 0a3e 98bf 2a3e 14c8 42bd
00000300: cc8f 923c 35a1 f5bc d308 4abc 33de 8ebe
00000310: aa35 843e 332d 65be 0a1f c6be 7781 9ebe
00000320: db55 803e 7016 4ebf 115f 7b3e 8998 ff3b
00000330: cfb1 163e 76c5 24be f433 b33c 4d1c 65be
00000340: 00ca 243e 02d8 10bd 3f51 073e 0e4c 663d
00000350: 22a0 323d 9091 93be 8229 213d 47db 0dbd
00000360: cfa8 183e d7fe 72be f2a8 12be e8b6 853d
00000370: 6099 ba3d 9362 49be 5ffa 50bf 2d37 323e
00000380: 9cf3 efbb 4087 783d ead8 6b3e d292 73be
00000390: ba53 8cbe 46a8 babc 94aa 633e 2c36 99bd
000003a0: 8c91 4abf b64a 3fbf 0e02 8ebe 11d5 7cbb
000003b0: a6ec f8bd 1957 44be f6b4 eabd 3909 56bd
000003c0: 0152 4f3e 30ee 3b3e 7833 77bf 2cde 83be
000003d0: 0f9c 5ebe db11 c33d edae 673e 2d13 a13c
000003e0: 01a6 89be 9b04 6abf daad 5cbf 8ad7 c7bd
000003f0: 09dc 2e3e 12e1 31be 998e fdbd 9d89 c3be

fc.weight f4 [10, 128]
-0.31280512 -0.75682837 -0.79930574 -0.3523291 0.6295464 -0.12496712 0.21531524 0.17277692
-0.10407454 0.1425552 0.21379954 -0.349923 -0.55151045 0.4867855 -0.09967629 1.688852
0.385254 -0.046068132 -0.6559408 0.68287176 0.1982298 -0.27680326 0.57812804 1.087836
-0.024994168 0.8127158 0.2036945 0.63044405 -0.25742385 -0.46065554 1.7027537 0.2282956
0.25650063 0.6878232 -1.0720532 -0.39423108 -0.5492315 -0.029816074 -0.09615926 -0.19248468
-0.19351077 -0.17304245 0.26216307 0.8940395 0.2784007 -0.2937801 0.09476186 0.6988213
0.33138385 -0.49656925 -0.25148743 -0.18438117 0.7157441 0.13342637 -0.7111382 -1.1565484
-0.22511326 0.04486794 -2.034527 0.412221 0.49203876 0.56523645 0.64010805 -0.062863156
-0.52144754 1.1349226 0.20704453 0.8959762 -1.029407 -0.68959737 -1.226862 -0.34319165
-0.9851866 -0.46610048 0.5524268 0.22925481 0.22701599 1.2092665 -0.28509372 -1.7604039
0.63531023 -0.1699797 -0.46041664 -0.37247807 1.0516373 -0.729704 -0.5862638 -0.056308944
-0.119219616 1.1584052 -0.53052276 0.48333737 -0.3463025 -0.5727382 0.15511788 -0.57637274
-1.1422491 -0.67866004 0.2386985 -0.71747386 0.6978654 0.3990967 -0.43095547 0.93441004
-0.39179 0.9820973 -0.30892012 -0.70278406 0.42637336 0.39595196 -0.556135 0.020691043
-0.57895446 -0.6587551 -1.0015632 -0.04095428 -0.13012788 -0.79564685 -0.50846016 0.32621065
0.48812112 -0.57976484 0.7973399 -0.60994637 0.10315012 -1.3878419 1.4418024 0.57691234
0.74564344 0.59225434 -0.084692955 1.10491 -0.1755966 0.23528746 -1.1845782 -0.24314688
-0.081405826 -0.4253853 0.39357895 -0.11138887 0.5545996 -0.32071477 0.4065214 -0.2771289
0.14937834 0.24081497 -0.030208467 -0.38102406 -0.6212716 0.43260533 0.005188647 -0.021614468
-0.44500506 -0.31394756 -0.40883806 0.14568557 0.4189466 0.8085735 -0.07842279 -0.91276973
0.07550076 -0.16967808 0.0982424 1.3694293 0.75632674 -0.44632158 0.3813044 0.70417
-0.045468193 0.31322333 -0.29397485 -0.1776925 0.12400093 0.49852636 0.20207067 -0.08147058
-0.41237226 0.66887075 0.6248435 -0.18664783 -0.4425414 -0.25252298 0.42201906 0.24743745
0.20782939 -0.372878 0.24163587 -1.1399322 -0.46438155 -0.07043513 -0.2524747 0.11948012
0.05629185 -0.20342214 -0.34573495 0.027533092 0.049274363 0.18380728 0.060976382 -0.12316367
0.363694 1.3717768 0.049633473 -0.38368168 -1.1433839 -0.17135265 0.72083503 0.16344954
-0.5405423 0.33432573 0.32100874 0.8977437 -0.5712946 0.363483 0.55002147 -0.2763835
-0.37413302 -0.09378683 1.044165 -0.8566695 1.1017108 0.36955178 -0.6387929 0.18680578
0.3839556 0.30723727 -1.1886352 0.302444 -0.48831883 -1.366204 0.088712975 -0.1784158
0.20699508 -0.24560362 0.9206345 0.77871764 -0.22905108 -1.285286 0.047219954 -0.20043926
0.3227833 0.32626548 0.03815848 0.35923824 0.22168197 -0.026195465 0.51786804 0.15617704
-0.6888995 0.2984735 -0.35982335 0.9088026 0.3373439 0.21138354 -0.18758808 -0.6369029
00000000: fe27 a0be 81bf 41bf 4d9f 4cbf 7b64 b4be
00000010: f429 213f c3ee ffbd 997b 5c3e 6fec 303e
00000020: 0825 d5bd fef9 113e 44ee 5a3e 1c29 b3be
00000030: ca2f 0dbf f33b f93e 1523 ccbd 4d2c d83f
00000040: 0340 c53e f0b1 3cbd bceb 27bf afd0 2e3f
00000050: c1fc 4a3e 28b9 8dbe 3300 143f 363e 8b3f
00000060: 92c0 ccbc 250e 503f 4a95 503e c864 213f
00000070: 0fcd 83be 0bdb ebbe d5f3 d93f 52c6 693e
00000080: 0d54 833e 2e15 303f 0a39 89bf a8d8 c9be
00000090: 709a 0cbf d740 f4bc 25ef c4bd b41a 45be
000000a0: b027 46be 0a32 31be 3d3a 863e c6df 643f
000000b0: 898a 8e3e 586a 96be 8212 c23d f4e5 323f
000000c0: 25ab a93e 533e febe f6c2 80be 6bce 3cbe
000000d0: 013b 373f eca0 083e 270d 36bf c709 94bf
000000e0: 1784 66be 72c7 373d b135 02c0 a20e d33e
000000f0: 81ec fb3e 56b3 103f 1fde 233f 66be 80bd
00000100: 967d 05bf 2545 913f 7b03 543e b25e 653f
00000110: 9cc3 83bf 7489 30bf d009 9dbf d1b6 afbe
00000120: 3035 7cbf b9a4 eebe d86b 0d3f c6c1 6a3e
00000130: e176 683e 3fc9 9a3f cef7 91be ea54 e1bf
00000140: b1a3 223f 290f 2ebe bbbb ebbe 72b5 bebe
00000150: 0d9c 863f e2cd 3abf 6215 16bf 35a4 66bd
00000160: 6a29 f4bd 9f46 943f 57d0 07bf ff77 f73e
00000170: 904e b1be f89e 12bf 39d7 1e3e 2a8d 13bf
00000180: 3835 92bf aabc 2dbf 616d 743e 5eac 37bf
00000190: 4fa7 323f 6756 cc3e 32a6 dcbe 7f35 6f3f
000001a0: b398 c8be bb6a 7b3f c72a 9ebe a8e9 33bf
000001b0: 9c4d da3e 37ba ca3e dd5e 0ebf 4380 a93c
000001c0: 5c36 14bf 2da4 28bf 3933 80bf adbf 27bd
000001d0: 3e40 05be 83af 4bbf 722a 02bf 1505 a73e
000001e0: 03eb f93e 786b 14bf 781e 4c3f 7225 1cbf
000001f0: 5f40 d33d cea4 b1bf fb8c b83f 87b0 133f
00000200: 7de2 3e3f fb9d 173f 8073 adbd b16d 8d3f
00000210: 98cf 33be 32ef 703e 42a0 97bf 7ffb 78be
00000220: 19b8 a6bd 1acc d9be 2e83 c93e d91f e4bd
00000230: 3dfa 0d3f ba34 a4be 9323 d03e d7e3 8dbe
00000240: a3f6 183e 3398 763e bf77 f7bc 9615 c3be
00000250: a80b 1fbf 727e dd3e 8705 aa3b d310 b1bc
00000260: b4d7 e3be bcbd a0be 3953 d1be 992e 153e
00000270: 2b80 d63e acfe 4e3f 219c a0bd 47ab 69bf
00000280: 24a0 9a3d 17c0 2dbe 5033 c93d 7649 af3f
00000290: a19e 413f 4384 e4be 553a c33e 7c44 343f
000002a0: db3c 3abd cf5e a03e df83 96be 06f5 35be
000002b0: 33f4 fd3d d93e ff3e 9deb 4e3e 0cda a6bd
000002c0: 7522 d3be 1d3b 2b3f bef5 1f3f 9c20 3fbe
000002d0: c994 e2be b14a 81be e212 d83e 3e60 7d3e
000002e0: 3ad1 543e dde9 bebe 656f 773e 4ce9 91bf
000002f0: 6bc3 edbe 4b40 90bd 5d44 81be feb1 f43d
00000300: 4892 663d e54d 50be 2c04 b1be 148d e13c
00000310: ead3 493d fa37 3c3e 5fc2 793d 3c3d fcbd
00000320: 1a36 ba3e 6296 af3f 784c 4b3d ed71 c4be
00000330: 675a 92bf 1277 2fbe a588 383f 515f 273e
00000340: fb60 0abf be2c ab3e 425b a43e 88d2 653f
00000350: 5d40 12bf 721a ba3e 35ce 0c3f 2382 8dbe
00000360: 5d8e bfbe 4f13 c0bd 33a7 853f b14e 5bbf
00000370: dc04 8d3f e435 bd3e ee87 23bf 044a 3f3e
00000380: d495 c43e 344e 9d3e 3325 98bf f1d9 9a3e
00000390: ed04 fabe c6df aebf 26af b53d a2b2 36be
000003a0: 85f6 533e 847f 7bbe b4ae 6b3f 0a5a 473f
000003b0: 5e8c 6abe 4084 a4bf b669 413d f33f 4dbe
000003c0: da43 a53e 450c a73e 114c 1c3d 13ee b73e
000003d0: 9900 633e df97 d6bc 0093 043f e0ec 1f3e
000003e0: b85b 30bf 85d1 983e c43a b8be 4aa7 683f
000003f0: 57b8 ac3e ed74 583e 1717 40be 120c 23bf

fc.bias f4 [10]
-0.44347537 -0.0074758064 -0.13190381 0.30928695 0.07353951 0.1750935 -0.19771782 -0.023362659
0.09938714 0.08510353
00000000: 340f e3be 9cf7 f4bb cb11 07be dc5a 9e3e
00000010: e29b 963d b64b 333e 8a76 4abe 0c63 bfbc
00000020: 7c8b cb3d c24a ae3d
