models/model_numbers_20_epochs.pth (torch, 42316 bytes, 6 tensors)

conv1.bias f4 [64]
00000000: e11f 923d c596 d7bd 61db 253e 123d 52bf
00000010: 4023 0dbf fcf4 00bf 51ac c2bd bca8 fdbe
00000020: dd50 8dbf 5e8f 1ebf aeb0 d4bd 557c 62be
00000030: b764 cabe 6b24 40bf a267 7cbe 9f33 05bf
00000040: 06ca 43bf 1489 3dbf aad3 48bf 24bb 73bf
00000050: 97ef 943d 357c 35bf 5f8a febe b6eb 64be
00000060: 368a 58bf 77f6 433d dffc 49bf baa6 e2be
00000070: 5a8d 993d f577 f2be 5a9e 0ebf 56a6 ebbd
00000080: eae6 c5be d884 b53d 7c15 49bf 2d6b e5bd
00000090: 415d 4bbf 31ba 57bf 265b 333e 245c 84bf
000000a0: a133 32bf c22d c93d e309 503e 0c43 c4bd
000000b0: 87a2 bcbe a6a0 75bf 1349 e2be 7a5c fdbd
000000c0: 05c0 5fbe e3e1 47bf 4a0e dfbe 39e6 f5be
000000d0: eb78 3a3e 0c95 2fbf b9aa 4ebe c0f7 883d
000000e0: 2d71 75be 321a 45bf 365e c4be d5f2 d6be
000000f0: 5ccf b8be fb6c e93d 9024 b2be 8e37 75bf
0.07134987 -0.10526804 0.16196968 -0.82124436 -0.5513191 -0.50373816 -0.09505523 -0.49542797
-1.1040303 -0.6193751 -0.103852615 -0.22117741 -0.39529964 -0.7505557 -0.24648908 -0.5203189
-0.7648014 -0.7403729 -0.78447974 -0.9520743 0.07272261 -0.7089265 -0.49714944 -0.22355542
-0.84585893 0.04784247 -0.78901476 -0.44267827 0.07497664 -0.47357145 -0.55710375 -0.115063354
-0.38652736 0.088632286 -0.7854841 -0.11202083 -0.7943917 -0.8426848 0.17515239 -1.0340619
-0.6961003 0.09823181 0.20316271 -0.09583101 -0.3684275 -0.95948255 -0.44196376 -0.12371154
-0.21850593 -0.7807905 -0.4356559 -0.48027208 0.18210189 -0.685868 -0.20182313 0.066878796
-0.23968954 -0.76993096 -0.38353127 -0.4198214 -0.36095703 0.113977395 -0.3479352 -0.95787895

conv1.lin.weight f4 [64, 2]
00000000: d515 1cbf be6b 0fbe 807a fcbe 8d41 48bf
00000010: e58b 783e 7411 fbbd 6473 1f3f cd08 15bf
00000020: 4990 0c3e 35bf a53e e040 67bf b822 03bf
00000030: 0210 f4be 9cfd 4bbf 3b4d abbc 44ba 8a3e
00000040: 8b0f 223f aee4 f8be a2ca 9dbc 60f3 a53e
00000050: d349 e9be 05de 44bf c3d9 ff3e d8e9 733e
00000060: 2e83 653d 5709 693e 03f0 96bf d3a0 23bf
00000070: c30d f73e f448 c7be 1c15 6abc d4b1 903e
00000080: c9ea 153f efb2 1bbf f373 153f eeb0 1abf
00000090: a1ec 9cbf 74bf 26bf 72de 233f 2bf0 eebe
000000a0: 9a45 0fbf d08f 13be 92bb 053f 351f 1abf
000000b0: 2cf5 8abb d9a2 8a3e 4fe6 013f 1458 783e
000000c0: d720 1c3f ad3b edbe fd60 13bf c885 16be
000000d0: 9088 143f 3c15 30bf 664a fcbc c52d 813e
000000e0: 44db 08bf 6053 05be 136f 1dbc 0869 853e
000000f0: 5405 10bd 935c 983e 2810 06bf 3098 4bbf
00000100: 5dd0 97bc 5b0c 593e f29a b23e c81f 4c3d
00000110: d4d8 143f 1d49 17bf d94c d3bd e81a 113e
00000120: 0e82 1b3f 322c 0cbf 4fa9 1f3f 0093 e9be
00000130: b575 7e3e b338 d3bd 62df 303f 1b80 edbe
00000140: 3972 0a3f 68a3 0fbf c7d4 d83e de71 503d
00000150: 5d01 933e 9654 95bd 4830 eebe a37f 39bf
00000160: 4cff 5abd 530a 573e fcd2 233f f6e5 ebbe
00000170: 37d5 b23d b64a 843e c890 00bf 311b 4cbf
00000180: 8479 f23e 5ff8 783e 7686 183f 3289 16bf
00000190: e433 20be c85b 503e f622 78bc 0027 853e
000001a0: f101 933e 4d39 08be 4e51 0c3f 9d5e 08bf
000001b0: 8d80 e73e 408e 543e 3e04 003f 59e6 923d
000001c0: e120 073f c478 783e ab08 99bf aab8 1cbf
000001d0: fa9e b4bd 5336 4e3e dae2 4d3a 0e3f 793e
000001e0: 8c81 3abf fd26 f2be e369 e43e 010c ef3c
000001f0: 5494 57bd 1e54 503e d9b9 2c3f 71c8 e7be
-0.60970813 -0.14005944 -0.4931221 -0.7822502 0.24272116 -0.12259188 0.6228545 -0.58216554
0.13726915 0.32372442 -0.90333366 -0.5122485 -0.47668463 -0.7968385 -0.02091085 0.27095234
0.63304967 -0.4861197 -0.019261662 0.32412243 -0.45564136 -0.76901275 0.49970827 0.23819673
0.056033306 0.22757469 -1.1791996 -0.63917273 0.48252687 -0.38922846 -0.014287259 0.28260672
0.5856138 -0.60819906 0.5838005 -0.60426223 -1.2259713 -0.65135884 0.640113 -0.4666761
-0.5596558 -0.14410329 0.52239335 -0.6020387 -0.0042406525 0.27077368 0.5074205 0.24252349
0.6098761 -0.46334592 -0.5756987 -0.14699471 0.5802088 -0.687824 -0.030797195 0.25230232
-0.5345957 -0.13020086 -0.009609002 0.26056695 -0.03516133 0.2975813 -0.523684 -0.79529095
-0.018531973 0.2119612 0.3488384 0.049834996 0.58143353 -0.59095937 -0.10317392 0.1417042
0.6074532 -0.54754937 0.6236772 -0.45619965 0.24849589 -0.10313549 0.69090855 -0.463868
0.5408054 -0.56108713 0.42349836 0.050889842 0.28711978 -0.07291524 -0.4652121 -0.72460383
-0.053466126 0.21000032 0.6399381 -0.46073884 0.08732074 0.2583825 -0.5022092 -0.7972899
0.47358334 0.24313496 0.5958017 -0.58803093 -0.15644795 0.20347512 -0.015145054 0.26006317
0.2871242 -0.13303109 0.5481156 -0.5326937 0.45215264 0.20757389 0.50006473 0.071728416
0.52784544 0.24264818 -1.195577 -0.61219275 -0.08819385 0.2013791 0.0007853933 0.2434046
-0.7285392 -0.4729537 0.44612035 0.029180529 -0.05263169 0.20344588 0.6747108 -0.45270112

conv2.bias f4 [128]
00000000: 271e e93d c2ef cb3e 835a 6ebd e2e8 7fbd
00000010: 7440 9dbe 30c3 853e 13f7 88be a4b7 ee3e
00000020: 1f26 9abe 8f47 ab3e 3260 1ebe a90f d83e
00000030: 579b 133f 1fe5 d73e e88b 353e 6b43 613d
00000040: 7fa5 b6be 7e81 c73e f5c1 353f b232 7b3e
00000050: b43f 28bf cc13 203d b453 b5bd a8b9 12bf
00000060: ca86 e53e 28e3 5e3d 3324 e4bd 8f6f c1be
00000070: 20b2 c0be 78d9 083f 6819 613e 49f5 403e
00000080: 8f29 c03c bb27 4bbe c237 5c3e 155b 903e
00000090: e841 c53d 0338 083e 43bd 82be c2bd 9dbd
000000a0: 496a 113f 4746 a93e c68a a23e 85d7 ba3c
000000b0: 54f7 0dbe 6d3d 203b 5487 ecbb b134 d93e
000000c0: a74b bd3e 4026 bb3e 6cf1 1ebf 5453 793e
000000d0: afbe 08be 6132 babe b332 fabe a738 78be
000000e0: 9b0d 093e f889 313d 47e9 12bf 221c 0abe
000000f0: 84ef c3be aff5 423e 0ae6 ddbd 6cdb 94bd
00000100: dab3 023f 3842 0abf f0a3 4d3e 506e c0bd
00000110: 006e fabc fdad 4d3e bdac 8c3e 41d8 8b3e
00000120: b2c8 6cbd 460f 123e 859a f8bd 435f d83d
00000130: 41f0 ffbe ecef 1abe 605c 20bf 14b2 0bbe
00000140: 567b 873e b011 75be 7f31 f43e afc6 aa3e
00000150: a901 c23e 057d 19be 8a3f 1bbd dc55 0d3f
00000160: 76f0 b6bd 15f3 2abe c46a 343d 23cb 2e3d
00000170: dcac cc3e 72be e03e 0dd2 30be 51a6 293f
00000180: b447 39be 68d3 cabe da85 053f 3f29 debe
00000190: ba4d 65be 020a b3be bca0 2abf 0bc7 8f3d
000001a0: 3c42 253f f15b 593e 6192 0d3e 3b51 303e
000001b0: 6c1f 8ebd cff7 7c3d 0443 c43d 7323 d5be
000001c0: c2e5 303e f5de e9bd 85cb 46be 74e8 ac3e
000001d0: 19ac 70bd de71 d7be ed52 30be 6b3b f93e
000001e0: 7f4f 5a3e 9bc1 88be 68c8 283e 030a 86be
000001f0: bd7c 933e af71 bbbe 8d49 abbe 8ec5 453e
0.11382704 0.39831358 -0.058191787 -0.062477954 -0.30713236 0.2612548 -0.26751003 0.46624482
-0.3010721 0.33453032 -0.15466383 0.42199448 0.57658905 0.42166993 0.17729151 0.054995935
-0.35673138 0.38965982 0.7099908 0.24531057 -0.65722203 0.03908138 -0.08853856 -0.5731454
0.44829398 0.05441585 -0.11139717 -0.37780425 -0.376359 0.5345683 0.21982348 0.18843569
0.023457317 -0.19839375 0.21505645 0.2819449 0.09631711 0.13302617 -0.2553502 -0.07702209
0.56802803 0.3306143 0.317465 0.022807846 -0.1386388 0.0024450675 -0.007218281 0.42423013
0.3697178 0.3655262 -0.6208713 0.24348193 -0.1335399 -0.3636656 -0.48866805 -0.24240361
0.13384096 0.043344468 -0.573872 -0.13487294 -0.38268673 0.19039033 -0.10834892 -0.07268414
0.5105568 -0.5400729 0.20082068 -0.093960404 -0.03057003 0.20085903 0.2747554 0.27313426
-0.057808585 0.14263639 -0.12138847 0.10565045 -0.49987987 -0.15130585 -0.62640953 -0.1364215
0.26461285 -0.23932528 0.47694013 0.3335471 0.37891892 -0.14989097 -0.037902392 0.55209136
-0.08932583 -0.16694291 0.044047132 0.042674195 0.3997563 0.43895298 -0.17267628 0.66269404
-0.18093759 -0.39614415 0.52157366 -0.43390843 -0.22392932 -0.34968573 -0.6665151 0.07020386
0.6455419 0.21226479 0.1382537 0.17218487 -0.06939587 0.061759766 0.09583095 -0.41628608
0.17275146 -0.11419479 -0.19413574 0.33771098 -0.058757875 -0.4207906 -0.17219134 0.48678145
0.21319388 -0.2671021 0.16482699 -0.26179513 0.28806105 -0.3661017 -0.33454552 0.19313642

conv2.lin.weight f4 [128, 64]
00000000: a4e4 943d 6448 9ebd 7f32 3b3e 5648 063f
00000010: 9d7f 36bf b032 b9be a7dd bb3c 72bf 39bf
00000020: 8663 8d3e 5502 7cbf 9dd1 86bd f169 73be
00000030: ae7e 46bf 805f c4be 38fe 45ba 0e93 42bf
00000040: 98e2 143f 7c79 a63e a7cd d9be 838a 873e
00000050: 1b90 9a3c 76ae 813e 6e4b 42bf 83ab 643c
00000060: 87a1 033f a644 2b39 83b3 733e df14 4cbf
00000070: 4b84 d83d 2be3 3bbf ac2f 1fbf d423 2a3e
00000080: 9a7a 19bf 9d82 9e3c b3b1 033f 3ea2 8bbe
00000090: fad1 ec3e d8b3 ca3e 063d 613e 6ecf 9e3e
000000a0: 42be b33e 46ad 3dbe 2255 3e3e b30f 06be
000000b0: 76e8 b6be 6007 de3e 13e7 2bbf e40c 49bb
000000c0: 455e 67be fc41 0d3f 7821 2dbf 142c 57bf
000000d0: 5181 ad3c 141d 293f 9a74 69be b4d0 03be
000000e0: 925c 77be 827b 72be b88a aebe 5ab6 18bf
000000f0: 2c82 d1bd 64bc 84bd a604 14bf 7694 4d3e
00000100: 4c61 ca3c 5bf5 543e e244 0b3e 2958 59bf
00000110: af17 2dbd 4843 5bbe fd9f b63d 378a 7a3d
00000120: ec47 e6bf 1d78 0cbc e509 b0bd 0244 8cbe
00000130: f7e8 fd3c 4cd4 c2be 6f73 613d 8dd2 0fbe
00000140: 3629 89bf 4f44 8fbf 5701 e4be 646a c2bf
00000150: 8cf1 363e a0db 80bf a811 1a3e c249 36be
00000160: a4a2 98bf d7b6 b63d 4612 50bf 096f d03d
00000170: 93b7 70bc 6aa9 443e 0d89 2abd 0988 003e
00000180: 0b59 353e f9b2 d4bd 14b3 87bf b3e2 143d
00000190: 7edb 6cbf a203 99bf 15ce 88bd 965b b8bf
000001a0: 4a72 84bf 1f1d 1abe 5201 afbc bf0d e53d
000001b0: c7bf 66bd f53a 94bf 1c79 8d3d d423 4ebe
000001c0: 7b3e 01bd 69ee 66bf 22ad 593e 0fb8 4e3e
000001d0: 7f85 c7bd eb16 aebf fa37 4abe 1495 98bd
000001e0: d7e7 8bbe 7e5a d3be 114f 9cbd 5897 1a3e
000001f0: 0568 a2bd 9733 493d 8a1c 173e 767f 85bf
00000200: d88a 063f ba8b b3be a48d a3be 84ce bbbe
00000210: 030c c23e f0b9 61bf 3fd3 87be e538 4d3e
00000220: 04ae 14bd 0028 c73e afcc 20be 50cf cf3a
00000230: cf57 8a3e b693 ccbf 42e1 18be de6b c73d
00000240: 6bf4 1c3d 4747 8cbd b964 d2bf d15a a9bd
00000250: 458d e53e ad73 46be 2eac f83e 8c05 893e
00000260: 502d 14be 7270 ea3e 5140 0cbe 0f8f 4c3e
00000270: c0cd da3e bc8d 8b3e a2ec 813e 8635 9bbe
00000280: 0029 343e 274e 47bd d940 90be 5868 083d
00000290: f753 4abe 8367 0fbe 3d23 71be 7f48 7abe
000002a0: ec9e 5dbe 3cf8 e8bd 548f 68be fcf0 44be
000002b0: 1c83 773e afc5 c4bc dca6 5c3e 7556 3dbe
000002c0: c5ac f13d b611 afbd cb68 dc3e d7fe d63e
000002d0: a607 2cbe d119 32be 1515 f33d 31ea c63d
000002e0: 34c7 343e 585d c0bf ca15 853e 55b3 383e
000002f0: b08a d0be f7f9 62be 6b85 993e 0919 27be
00000300: beb1 d23a 450a e1bd 3ad3 4fbd 2239 523e
00000310: e9d6 2d3d 20d3 50bf 52ee 91be 8573 31be
00000320: 6429 bf3e 65d7 b6be cdde 85bd e059 7c3e
00000330: 7db9 8bba e33b 91bf 6904 d7bc 2d03 2bbe
00000340: e387 cc3e adf4 cd3e 283b 8cbf b2b4 e43e
00000350: 16e2 3a3e e2d2 2c3e ead3 b8be da06 943d
00000360: 6107 073f 4928 27bd 97cf c73e a014 8fbe
00000370: 0480 30bc bcfa 80be 96c7 86be c41a 10bd
00000380: 2948 6bbe fd35 583e e423 d33e d2b1 523d
00000390: 96a6 f13e d208 9c3e fd76 453e b5c8 ec3e
000003a0: 764d be3e 9e07 31bd 543d 183e 6558 bebe
000003b0: 1c9b ccbd cddc 173f 78e8 9a3d 821f 89be
000003c0: ddef 8c3e 9cf5 7f3e 2d6e 8bbe 0fc1 6dbe
000003d0: f5ba d23d ea5b 0d3f 2354 3d3d 87bf 5f3e
000003e0: b598 7a3e f216 8fbf 4e94 8abe d46e 9f3d
000003f0: 203b a6be c858 d33d 6218 38be 9c54 9f3e
0.07270172 -0.07728651 0.18280981 0.52454126 -0.7128847 -0.36171484 0.02293284 -0.7255775
0.27614993 -0.9844106 -0.06582949 -0.23770882 -0.7753705 -0.3835411 -0.0007552835 -0.7600564
0.58158255 0.3251456 -0.42539713 0.26472864 0.018867543 0.25328416 -0.75896347 0.013956907
0.51418346 0.00016333404 0.23798947 -0.79719347 0.10572108 -0.73393506 -0.62182117 0.1661523
-0.599527 0.01934939 0.5144302 -0.27272218 0.4625395 0.39590335 0.21995935 0.3101763
0.35106093 -0.1852313 0.18587163 -0.13091926 -0.3572423 0.43365002 -0.67149466 -0.003067785
-0.22594555 0.5517881 -0.67629194 -0.8405163 0.021179827 0.66059995 -0.22798386 -0.12872583
-0.24156407 -0.23679927 -0.3409021 -0.59653246 -0.102299064 -0.06481245 -0.5781959 0.20076165
0.024704598 0.2079672 0.13600495 -0.84900147 -0.042258915 -0.21412385 0.08917234 0.06116697
-1.7990699 -0.008573559 -0.08595637 -0.27395636 0.030994875 -0.38052595 0.055041727 -0.14045162
-1.0715702 -1.1192721 -0.44532272 -1.5188718 0.1786558 -1.0067024 0.15045798 -0.17801574
-1.1924634 0.08921593 -0.81277883 0.10177428 -0.014692205 0.19205251 -0.041634608 0.12551893
0.17709748 -0.10385699 -1.0601525 0.03634901 -0.9252242 -1.1954234 -0.06679932 -1.440295
-1.0347378 -0.15050171 -0.021362934 0.111842625 -0.056335237 -1.1580492 0.069078654 -0.20130855
-0.031553727 -0.90207535 0.21257451 0.201874 -0.09742259 -1.3600744 -0.19747916 -0.074503094
-0.27325317 -0.41279978 -0.07632268 0.15096796 -0.079299964 0.049121466 0.1475698 -1.0429523
0.5255561 -0.3506754 -0.31944 -0.36680996 0.3789979 -0.88174343 -0.26528355 0.20041235
-0.036298767 0.38897705 -0.1570308 0.0015854631 0.27020118 -1.5982578 -0.14929679 0.09737371
0.038319033 -0.068495326 -1.6436988 -0.08269275 0.44834343 -0.19380064 0.48568863 0.26762044
-0.1447041 0.45788914 -0.1369641 0.19976448 0.427351 0.27256572 0.2537585 -0.30314273
0.17593765 -0.048658516 -0.28174475 0.033302635 -0.19758593 -0.1400433 -0.23548599 -0.24441718
-0.21642655 -0.11375472 -0.22710925 -0.19232553 0.24171108 -0.024020044 0.21548027 -0.18490012
0.11800531 -0.085483 0.430487 0.41991302 -0.16799793 -0.1739266 0.118692555 0.09712637
0.17654115 -1.5028486 0.25993186 0.1803716 -0.4073081 -0.22165667 0.29984602 -0.16318144
0.00160747 -0.10988287 -0.05073855 0.20529607 0.042441282 -0.8157215 -0.28502136 -0.17329223
0.37336266 -0.35711208 -0.065366365 0.2464366 -0.0010660138 -1.1346401 -0.02624722 -0.1670043
0.39947423 0.40225735 -1.0955553 0.4466911 0.18250307 0.1687732 -0.36099178 0.07227869
0.52745634 -0.040809903 0.39025566 -0.27945423 -0.010772709 -0.25191295 -0.26324147 -0.035181776
-0.22976746 0.21114345 0.4123832 0.051439114 0.47197407 0.3047548 0.19283672 0.46246877
0.37168473 -0.043220155 0.14867145 -0.37176815 -0.09990522 0.5932129 0.07563871 -0.2678185
0.2752675 0.24996036 -0.27232495 -0.23218177 0.102895655 0.55218375 0.046222817 0.21850406
0.24472316 -1.1178877 -0.27066272 0.07784811 -0.32466984 0.10319668 -0.17978051 0.3111924

fc.weight f4 [10, 128]
00000000: 8153 15bf 0434 7f3f ba59 4e3f 9598 2bbf
00000010: cf53 003f 6a0c e93e 82ed 113f b4a2 013f
00000020: f63d 32be c35f 583f ab41 0e3f 1e86 b93e
00000030: 1a02 1a3e 4705 35bf ef03 a03f bd61 ad3e
00000040: e7bd 00bf c859 f43e f2c2 97be 8930 313f
00000050: 69ba b33e b14d a13f 458f ca3e 61f1 55be
00000060: c1fb b0be 5b9c 8cbf 5501 903f 3cf1 c5be
00000070: 9310 98be 8489 63bd c4d7 fe3e effd 3a3f
00000080: d51b 143f 5335 fb3e d973 003f 1022 df3e
00000090: 5bdd 8e3e e77e 92be d30f 933f a667 cfbd
000000a0: c5d7 51bf 92ea 0d3e 5f96 593d 842c 42bf
000000b0: fcc0 19bf ab0b 4b3f 4bc6 f43f dca3 14c0
000000c0: a259 0bc0 dbb9 073f cf19 56bd 82ed 423f
000000d0: 33f9 41bf f75e 203f d09a 3d3f 5dac 813f
000000e0: 96e1 ddbe cdc2 c1bf 29c9 0d3f 2a90 99bf
000000f0: 335c 8b3f 1533 1a3e 8f01 3dbe ab03 5d3e
00000100: 48f4 b4bf cc3f d13e 5efc 623f 44eb fbbf
00000110: 1dd7 05bf 449e 4e3f 9a79 da3e ae9b 07bf
00000120: 16bd 80bf 3a8b b0be c049 c7be 49a1 2940
00000130: cd53 25bf c40a d0be 1757 ff3e e764 5240
00000140: 2932 e43e 5e19 35bf 2a39 fc3e fcbd 823e
00000150: d31c 76bd ceb7 28be 3c30 98be 4489 2c3e
00000160: 7499 fd3e b482 1f3d b884 1c3e dcb5 9d3f
00000170: c6e5 88bf 45fd d43e 8172 85be 222b 11c0
00000180: aef1 cf3f 720b 74bf a2c5 be3e 6790 613f
00000190: 67c9 66bf 2b63 1040 2ab2 553f 1138 78bf
000001a0: c315 f3bf 0783 453f eb80 ee3f 637f 86bf
000001b0: 70f8 6e3f 429e ccbf 671b 923f 279b 733f
000001c0: 7395 f03e 7948 73bf d786 8abf ada7 c23e
000001d0: 953b 563f 1dde a73f 39ef 5f3f c97f c1bc
000001e0: c1c5 7abe a1de ddbe 7538 c6be e627 13bf
000001f0: 1def 143e 7d02 e0bd 11d4 efbb 7842 133f
00000200: 312c 783f e28c b1bd b191 86be 5595 003f
00000210: a8b5 7a3e 564c fcbf ccfd 7abe 9aa1 1bbf
00000220: 3d5a 353f 8cec 7fbe db32 18bf c3ab babd
00000230: 5cab b6bf 36dc 233f 7ea5 b0be 6b3c b6bf
00000240: 92d9 1e3f 8833 9bbf 4c7d e2be 9b6b 0ebf
00000250: 5cc7 583d b420 afbe 555d 60bf 8173 b63e
00000260: ee0e e8be 1988 a1bc 6539 0fbe d879 ebbd
00000270: 6a89 81be a8c8 22bd 2215 d7bf e657 d0be
00000280: c9dd 8f3d 5fea 5cbf 2dc5 8bbf c8c2 32bf
00000290: fd4e 7bbf c45e 353c 1cb2 a4be 9366 89bc
000002a0: f402 8ebe a9b2 803e 7b3e fabe ac3f 3e3e
000002b0: f4ed 0d3f 83b9 fdbe 1e37 00bd 5e74 0e3e
000002c0: 92d7 693e 6f11 95be ba4c 783f 16c5 c2be
000002d0: bb20 2d3f 9957 90be 7525 37be ff28 91be
000002e0: 32df 893f f115 543e e8da a33e ecdd c83e
000002f0: de04 2ebe f016 c7bf 4d22 36bd f2ef 8ebe
00000300: f7fc e63c 2121 b8be b9d3 13bd ec3d 233d
00000310: 2a9c 96bd 14ff 0bbf f312 ccbf 2f76 8b3f
00000320: dc71 7c3e b516 833f 8e73 873f 085a 66be
00000330: 98d9 f83e 1179 a33f 20b1 383e eb91 7fbe
00000340: fcc8 d6be ae51 58bd 21d8 41bf c1ae c7be
00000350: 7afd 3f3c e699 40be ade9 873f c7f2 7bbf
00000360: a6a1 ccbf 80e6 f9bd 50b4 17bf d380 31be
00000370: d2bc 0bbd 34ce 96bf 99dc 713f f1dd 203e
00000380: 228c a0be 0d35 ea3e fa1e 87bf 516b 1ebf
00000390: f16a 0e3d 5143 83be fbda b4bd 5379 e33d
000003a0: 88dc 663e 1e7e cdbe 35ed 87be 64bd c83e
000003b0: 35a2 d6be b2ff 803d 08bf bcbe 74cd d3be
000003c0: de45 10c0 c01c ce3e 6bc4 713e a5bd 6ebf
000003d0: 6d5b 76be 997d 21be b62a 80be cb6c 00bf
000003e0: da23 babe 468b b13f 8006 ad3e a716 953e
000003f0: a7c7 70be 4a1a b43c ae2d 2d3f 00c1 d5bd
-0.5833054 0.99688745 0.8060566 -0.67029697 0.5012788 0.45517284 0.57003033 0.5063889
-0.17406449 0.8452112 0.5556895 0.36235136 0.15039864 -0.7071118 1.25012 0.3386363
-0.5028977 0.47724748 -0.2964092 0.69214684 0.35103157 1.2601835 0.3956243 -0.2089286
-0.34567073 -1.0985216 1.1250407 -0.3866061 -0.29700145 -0.055551067 0.4977399 0.7304372
0.5785497 0.4906412 0.5017677 0.43580675 0.27903256 -0.28612444 1.1489204 -0.10127191
-0.81969863 0.13859013 0.05312192 -0.75849175 -0.60060096 0.7931468 1.9123014 -2.3225012
-2.1773458 0.5301797 -0.052270707 0.7614366 -0.7577087 0.62644905 0.7406435 1.0130726
-0.4333617 -1.5137573 0.5538507 -1.199712 1.0887512 0.15058549 -0.18457626 0.2158343
-1.4137049 0.40868986 0.8866633 -1.9681172 -0.5228136 0.80710244 0.426709 -0.52971923
-1.0057704 -0.3448122 -0.38923454 2.650469 -0.64580995 -0.40633214 0.49871132 3.2874086
0.4456952 -0.7074183 0.49262363 0.25535572 -0.060086083 -0.16476366 -0.297243 0.16849238
0.49531138 0.038943008 0.15285003 1.2321124 -1.0695121 0.4159948 -0.26063922 -2.2682576
1.624563 -0.95329964 0.37260157 0.88110965 -0.90151066 2.2560527 0.8347498 -0.9696055
-1.8991016 0.77153057 1.8633093 -1.0507625 0.93347836 -1.5985796 1.1414613 0.9515862
0.4698902 -0.9503246 -1.08224 0.3801855 0.83684665 1.3114659 0.874744 -0.023620503
-0.244895 -0.43333915 -0.38714948 -0.57482755 0.1454434 -0.109379746 -0.0073189815 0.575233
0.9694243 -0.086694494 -0.2628303 0.5022786 0.24483359 -1.9710796 -0.24510878 -0.6079346
0.7084082 -0.24992579 -0.594526 -0.09114792 -1.4271045 0.6400789 -0.3450126 -1.4237188
0.62050736 -1.2125101 -0.4423622 -0.5563294 0.0529245 -0.34204638 -0.87642413 0.35634997
-0.4532389 -0.019718217 -0.13986738 -0.11497849 -0.2530015 -0.039742142 -1.6803324 -0.4069206
0.07024724 -0.8629512 -1.0919548 -0.6982846 -0.981674 0.011069957 -0.32167137 -0.016772544
-0.27736628 0.25136307 -0.48875794 0.18578976 0.5544121 -0.49555597 -0.031302564 0.13911578
0.2283614 -0.29114863 0.96992075 -0.3804099 0.6762807 -0.28191832 -0.17885382 -0.2835159
1.0771239 0.20711495 0.3200295 0.39231813 -0.16994044 -1.5553875 -0.044466306 -0.2791744
0.028196795 -0.35962775 -0.036090586 0.039853975 -0.07354005 -0.54686093 -1.5943283 1.0895442
0.24652809 1.0241305 1.058214 -0.22495282 0.4860351 1.2771322 0.18036318 -0.24958007
-0.41950214 -0.05281227 -0.7572041 -0.39000514 0.011718148 -0.18808708 1.0618187 -0.98417324
-1.5986831 -0.122021675 -0.5925951 -0.17334299 -0.03411562 -1.1781678 0.9447723 0.15709664
-0.31356913 0.457436 -1.0556328 -0.618825 0.034769956 -0.25637296 -0.0883083 0.11107125
0.22545063 -0.40135282 -0.26548162 0.39206994 -0.4192063 0.0629877 -0.36864495 -0.41367686
-2.2542644 0.4025631 0.23610084 -0.93258125 -0.24058314 -0.15770568 -0.25032586 -0.50166005
-0.36355478 1.3870628 0.33794022 0.29118845 -0.23513661 0.021985192 0.67647827 -0.104372025

fc.bias f4 [10]
00000000: 545b 29bf 3b8e ccbd 00d9 3cbe 8ff7 f33e
00000010: f19c 4d3e a19f 513e f0b6 87be cf1e 01be
00000020: 89c6 293e 3aa1 973d
-0.6615498 -0.09988066 -0.18442154 0.4764981 0.200794 0.2047105 -0.26506758 -0.12609409
0.16579641 0.074037984
